apps/sherpa-onnx-demo/public/wasm/kws/decoder.onnx (onnx, 675349 bytes, 4 tensors)

decoder.embedding.weight f4 [197, 320]
000000 39 91 de bd 48 f9 53 bc 99 d6 65 be 38 ec 8a bf
       -0.10867543 -0.012937851 -0.22445144 -1.0853338
000010 35 a8 b3 be 8b 1d f0 3e 7d a5 9a bf e6 80 b8 be
       -0.3508927 0.4689754 -1.2081753 -0.36035842
000020 d6 f3 bf 3e f5 e6 ab be 82 9e b9 3f 51 43 0b bf
       0.3749072 -0.33574644 1.4501498 -0.5439959
000030 b0 eb 87 3e f4 f9 5e 3f 2d d5 f7 3e 4b 02 c6 bd
       0.26547003 0.8710015 0.48404828 -0.09668406
000040 8d a2 3e bf 5b 8f d8 be cb b2 95 bf b5 2f 38 3e
       -0.7446678 -0.42296872 -1.1695188 0.17986949
000050 f5 fd 34 bf 2c 4b a7 3f 1c e4 71 bf 52 e7 6b be
       -0.7070001 1.3069816 -0.9448869 -0.2303746
000060 72 0d 57 3f a0 57 1e be 7d 00 78 3e e4 e5 1c 3e
       0.8400489 -0.15463114 0.24218936 0.15322071
000070 0e 6e d2 3d 7f 2e bb be 3f 60 b1 be d3 42 78 3f
       0.102748975 -0.3655891 -0.34643742 0.96976966
000080 ff 11 2d be d6 76 bc 3e 9a 97 3c bf 2c 12 a0 be
       -0.16901396 0.36809415 -0.73668826 -0.31263864
000090 9c de 7e 3f 6b 1e 2c bd 41 e3 2c 3f 70 b9 85 3e
       0.99558425 -0.042021196 0.6753426 0.2611804
0000a0 8f 9e 55 3e 5a 77 6e 3f ad b1 89 3f 65 8d b0 be
       0.20861267 0.93150866 1.0757347 -0.34482875
0000b0 03 7f c4 bf 57 f6 a6 3e a4 3e 0b 3f 99 38 30 be
       -1.5351261 0.32609817 0.54392457 -0.1720909
0000c0 fe 19 cc be 65 d2 67 bf 67 46 cc be b5 aa 53 bf
       -0.3986358 -0.9055541 -0.39897463 -0.82682353
0000d0 55 12 93 be 0c 49 ce 3e 93 0f ab 3e 1f b7 8b 3f
       -0.28724924 0.40290105 0.3341032 1.0915259
0000e0 13 f0 49 bf 14 6b 03 bf cf aa a9 3f c1 40 ba 3e
       -0.7888195 -0.51335263 1.3255252 0.36377528
0000f0 f4 1b 6a bf fc 8f ae 3f 9a 62 05 bf 0e b8 51 bf
       -0.91448903 1.363769 -0.5210358 -0.8192147
000100 27 0e b3 3d 28 1d 25 bf 07 59 ba 3e 64 a6 30 be
       0.08742934 -0.64497614 0.36396047 -0.17250973
000110 69 48 a4 be 7b a4 9d be f9 c4 25 bf ef 88 0c bf
       -0.32086495 -0.3078955 -0.6475368 -0.54896444
000120 9c b2 04 bf 79 96 d0 3c b5 93 15 3f cc d7 3c bf
       -0.51835036 0.025462376 0.5842851 -0.7376678
000130 cc af 23 3f be 13 48 bf 7f 8a a2 be fe f0 91 3e
       0.6394012 -0.78155124 -0.3174629 0.28504175
000140 11 fd 93 bf 04 34 99 3e c1 31 2c 3f f1 3d 16 bf
       -1.1561605 0.29922497 0.6726342 -0.58688265
000150 6b 99 59 bf d6 a4 46 bf 3c cc 51 bf 65 01 1f 3f
       -0.8499972 -0.7759527 -0.8195226 0.621115
000160 8a 51 47 3f bf 97 b2 3f 74 06 8c be 5c 15 ae 3f
       0.77858794 1.3952559 -0.27348673 1.3600268
000170 52 52 a1 bf 75 af 8b 3e 55 38 b2 3d 71 f4 07 3f
       -1.2603247 0.272823 0.08702151 0.53107363
000180 84 c6 91 be 89 be d3 be 6c ad 20 3f cc 19 68 bf
       -0.28471768 -0.41356304 0.6276462 -0.9066436
000190 59 ec bf 3e c4 16 62 3f 5b b1 aa 3d 1b 5e 95 3f
       0.37485006 0.8831599 0.08334609 1.1669344
0001a0 b6 79 8c 3f b9 04 70 bd e0 eb 28 bf bd 5a a1 3d
       1.0974643 -0.058598254 -0.65984917 0.07878635
0001b0 6d 32 d1 3c 1c 8e b4 bd 5c 36 c1 3e ad 75 bc bf
       0.02553674 -0.08816168 0.37736785 -1.4723412
0001c0 c3 58 af 3f 4d 49 df 3d 4f 16 90 3e 2e 82 01 3c
       1.3698963 0.10902653 0.2814202 0.007904572
0001d0 a4 64 f7 bf 0d 83 04 bf 0d 31 65 bf 33 ac 4b be
       -1.9327588 -0.5176247 -0.8952797 -0.19889908
0001e0 9f cd af 3f 5a cd 97 bd 5b a1 be bf 0a b3 1f 3e
       1.3734626 -0.074122146 -1.4892992 0.15595642
0001f0 a0 a9 ad bd e1 f9 77 3e 56 5a 40 bf 09 c5 a9 3f
       -0.08479619 0.24216415 -0.7513784 1.3263255
000200 8c 70 32 3f 65 54 67 c0 09 16 25 c0 8b 01 d4 3f
       0.6970298 -3.614526 -2.57947 1.6562971
000210 72 3c 6b 3f 12 d3 a5 be 73 62 32 bd 28 17 05 3f
       0.9188911 -0.32387596 -0.04355092 0.5198846
000220 46 0a 5b bd fd 71 8e 3f e1 f4 99 3f a2 e4 0f bf
       -0.053476594 1.1128536 1.2027856 -0.5620824
000230 6a 6b 6b 3e d4 78 0e 3f 02 11 aa bf b8 bb 4d 3e
       0.22990194 0.5565312 -1.328644 0.2009114
000240 d8 8a 13 3f e1 c1 3f be ec dc a1 be 7c 2e 88 be
       0.57633734 -0.18726303 -0.31613863 -0.26597965
000250 87 f9 f2 3d 68 9d c7 3f 5c 61 86 3f d8 b5 b8 3f
       0.11864 1.5594912 1.0498462 1.4430494
000260 4d 5b 40 bf ca e6 b9 be 26 67 8c 3f 6d a9 41 3f
       -0.75139314 -0.3630889 1.0968978 0.7564915
000270 4d 96 1d bf 5b eb fc be e0 26 01 bd dc 43 5b bf
       -0.61557466 -0.49398312 -0.031531215 -0.8565042
000280 1b 4d 68 bf b9 b9 c9 bf 24 19 12 3f 34 09 4e bf
       -0.90742654 -1.5759803 0.5706961 -0.8048279
000290 85 3d cf 3e 9b ca 0c bb 3e 48 16 3f a1 10 87 bf
       0.40476623 -0.0021483067 0.5870398 -1.055195
0002a0 a5 f0 82 3f 34 17 ce 3e 84 7f 4b 3f 7e 44 a7 3e
       1.0229689 0.40252078 0.7949145 0.32669443
0002b0 3b 5e 9b 3d a5 ee 1c be 82 08 8c bf 6c 64 d7 3e
       0.075863324 -0.1532541 -1.0940096 0.42068803
0002c0 14 ac 34 be a0 4c 21 3f 88 ca 30 bf 9a 1d ab 3f
       -0.17643768 0.63007545 -0.6905904 1.3368409
0002d0 b1 aa 23 be 0c 91 c4 3e 46 e0 ad bc b4 9a bd 3d
       -0.15983082 0.38391912 -0.021225106 0.09258023
0002e0 5b 0d 35 bd 9b 1e 8f 3e be 1f 54 3f 18 18 81 be
       -0.04420219 0.27953038 0.82860935 -0.25213695
0002f0 e1 69 3e 3f 8b 26 98 3e 73 9f 52 3e c4 38 53 bf
       0.7438031 0.29716906 0.20568638 -0.8250849
000300 82 ab 2b bf 7f 16 89 3f be aa be bc 3b a9 39 3f
       -0.67058575 1.070999 -0.023274776 0.7252385
000310 f5 e4 4d bf 59 1c d1 be 70 12 04 3f e3 36 d6 be
       -0.80427486 -0.4084194 0.51590633 -0.4183875
000320 1c 5f d1 3e 0a 24 55 be f6 64 a5 3f 8b f3 1e bf
       0.40892875 -0.20814529 1.2921436 -0.6209037
000330 5c 01 ff be 59 9d 39 bf c7 83 32 3f 72 9f 0e bd
       -0.49805725 -0.7250572 0.69732326 -0.034820028
000340 25 87 97 3f 37 14 21 3f c7 df 88 bf 0b 12 c6 be
       1.1838118 0.6292147 -1.0693291 -0.3868564
000350 0c 5b aa 3f 8c 67 2a 3f c2 85 be bf 42 f6 f2 3e
       1.3309035 0.6656425 -1.488457 0.47453505
000360 8d de 51 be 80 3c 96 bd ee 4c 7f bf d0 c4 03 3f
       -0.20495053 -0.07335758 -0.9972676 0.5147219
000370 a0 17 26 3f da 63 46 bf ef 01 0c 3f f3 d2 09 3e
       0.648798 -0.7749611 0.5469045 0.13459377
000380 45 25 3b be c1 13 78 bf 7f e5 20 3e 0d 72 d0 bd
       -0.18275936 -0.9690514 0.15712546 -0.101780035
000390 0c 20 2e bf 80 b7 a9 3f 6f 2c 54 3f 48 64 f1 3f
       -0.6801765 1.3259125 0.828803 1.8858728
0003a0 d7 dd 36 3f 46 b5 53 be c6 5e 0b be 94 cc 92 3f
       0.7143225 -0.20674619 -0.13610372 1.1468682
0003b0 5c e9 1e be ce d7 dc bf 42 ff 3e be 2d 72 97 3e
       -0.15518707 -1.7253358 -0.1865206 0.29579297
0003c0 c3 3e b9 bd 0d d4 58 3e 43 4c bc 3f 89 ba 20 3f
       -0.09045174 0.21174641 1.4710773 0.6278463
0003d0 68 58 6d be 56 12 2e bd 51 ec fb 3d 2c 6b 1e be
       -0.23178256 -0.042497955 0.12300933 -0.1547057
0003e0 7e 75 a6 bf 66 4c bf 3e 23 bd 84 3e 77 4c 7e 3f
       -1.3004606 0.37362975 0.2592555 0.99335426
0003f0 f6 89 1d bf 3a d6 ae 3e 0d bd 38 be 93 6e c1 bf
       -0.61538637 0.34147817 -0.18040867 -1.511187

decoder.conv.weight f4 [320, 4, 2]
000000 bf 46 c4 3e fe c6 8d 40 46 7b e5 bd 1e 05 ae bf
       0.38335225 4.430541 -0.11205153 -1.3595312
000010 96 30 8c 40 07 92 27 3f f1 85 ee 3c e5 2b 43 3f
       4.380931 0.65457195 0.029116603 0.7623885
000020 b9 b5 45 3f 40 4a 0c 40 51 58 3b c0 74 d5 8a bf
       0.7723041 2.1920319 -2.9272654 -1.0846391
000030 20 d6 b9 be dd 75 67 40 9b 7a cb 3e 2b a8 2b 40
       -0.36296177 3.6165688 0.39741978 2.6821392
000040 43 d2 18 3f 1b 25 1e be 73 d1 77 3d 5d 5f 7c bf
       0.59695834 -0.15443842 0.06050248 -0.9858301
000050 af 8c 34 3f b2 a3 41 3f 63 71 75 3f f5 42 a1 3f
       0.70527166 0.75640404 0.9587614 1.2598559
000060 28 e3 c7 3f 61 ef a1 3f 75 b0 a2 bc c4 fe f2 bf
       1.5616198 1.2651178 -0.019859532 -1.8983998
000070 6e 31 53 3e a3 1b 24 40 41 d9 34 bf 97 d2 17 bf
       0.20624325 2.5641868 -0.70644003 -0.5930571
000080 dc 44 27 3f 6e 28 91 3f 35 5b b7 bf 99 5e 15 3f
       0.65339446 1.1340463 -1.4324709 0.5834747
000090 72 e8 2f be 5d 01 d6 3e 6c 61 24 bf 00 54 c7 bf
       -0.17178515 0.41797915 -0.64211154 -1.557251
0000a0 b1 b9 23 bf 5a 99 11 3f ee d0 b0 be cb 7a 10 bf
       -0.6395522 0.5687462 -0.345344 -0.5643737
0000b0 17 5d d4 3f 99 7b f2 3f 14 c6 a7 bd 90 2e 1b c0
       1.6590909 1.8943969 -0.08192077 -2.424717
0000c0 f4 d1 14 3e c9 a3 98 3e 80 35 18 3f 0f db 74 be
       0.14533216 0.29812458 0.59456635 -0.23911689
0000d0 6f c3 fe be ef 80 50 3f 4f d8 9d bf b2 08 32 c0
       -0.4975848 0.8144674 -1.2331637 -2.7817807
0000e0 0e f0 0d bf 7c 2e e0 3f e9 e7 c0 3d 7a 52 a1 3f
       -0.5544442 1.7514186 0.09419233 1.2603295
0000f0 c3 41 6c 3e b5 f1 bb 3f 93 7a c3 bf d9 2b 3c c0
       0.23071961 1.4683138 -1.5271782 -2.9401762
000100 a7 78 be 3d 3e c6 13 40 78 5b 63 bd d7 9a b2 bf
       0.09300356 2.3089747 -0.055507153 -1.3953503
000110 fd 6b 65 3e d7 d6 5b be 6a ec 72 40 8f 46 f9 3f
       0.22404476 -0.21468674 3.7956796 1.9474658
000120 04 db 10 bd e3 29 28 bf f8 e5 e6 be 67 90 38 c0
       -0.03536512 -0.65688914 -0.45097327 -2.8838136
000130 4f 8b 26 3d 2d b7 c7 3f 9e 2b 3e 3f e6 51 e2 40
       0.0406602 1.5602776 0.74285305 7.0724974
000140 09 60 34 3f 1c 2f e7 3d 78 5c 46 3f 20 a6 28 c0
       0.7045904 0.11288282 0.77484846 -2.6351395
000150 25 64 48 c0 40 36 d0 bf 36 ed 0a 3f b6 a5 b6 40
       -3.1311123 -1.6266556 0.54268205 5.7077284
000160 b8 d1 28 3f 83 0e 7d bd 56 23 02 c0 2c a8 4d bf
       0.65945005 -0.061781418 -2.0334067 -0.80334735
000170 84 b6 62 3b be 7f 07 c0 8c 35 d4 3e e8 7e b2 3f
       0.003459365 -2.1171718 0.41447103 1.3944979
000180 19 31 99 3e bd b7 54 bf 22 a4 ed 3f 7f 12 b6 3f
       0.2992027 -0.8309286 1.8565714 1.4224395
000190 2a 46 5e bf fe 7f 12 c0 f4 24 d5 3c f8 ca e1 3e
       -0.8682581 -2.289062 0.026018597 0.44100165
0001a0 ee e6 c6 bf 99 a8 be bf e1 9a a3 3f 34 4f 06 3e
       -1.5539224 -1.4895202 1.278164 0.13116151
0001b0 29 0b a7 be 61 94 6c bf 39 4e 8c 3e 33 4e 47 40
       -0.32625702 -0.9241391 0.2740343 3.114148
0001c0 53 73 59 bf 00 42 3f bf af 3a fa 3f 25 5d 61 bf
       -0.84941596 -0.74710083 1.9549159 -0.8803275
0001d0 f0 3d 08 c0 52 23 34 c0 f2 5a bf 3f 51 ff a5 3f
       -2.1287804 -2.8146558 1.4949629 1.2968541
0001e0 93 2f 8d bd 9e 69 1d 3f 9a 1a a7 3f 3b 52 f0 3e
       -0.0689384 0.61489284 1.3054993 0.46937737
0001f0 f0 03 87 3e b3 34 c0 bf 07 85 b5 3f 87 87 f4 3f
       0.26370192 -1.5016083 1.4181222 1.910386
000200 2e 8b a0 bc a5 94 cf 3e d7 6f d6 be 5c 56 ca 3f
       -0.019597616 0.40543094 -0.41882202 1.5807605
000210 7b c2 a0 be d0 ae 84 be 1c b6 f9 3f db 6e 46 40
       -0.31398377 -0.2591462 1.95087 3.100516
000220 da 4d 16 40 ad 2d ce 3f fe cc 80 3f e9 3a c7 3e
       2.3485017 1.6107689 1.0062559 0.38912132
000230 42 6c 81 3f 81 26 c6 3f 5d 1a b2 3f 29 b9 25 40
       1.0111163 1.54805 1.3914295 2.5894263
000240 4d c4 1a 40 6c 0e 25 3e 94 30 b2 3f 4b 77 75 40
       2.4182312 0.16118783 1.3921075 3.835406
000250 c1 61 40 bf 2d 7d 26 bf d4 45 b4 3f 59 ee 6d 3e
       -0.7514916 -0.65034753 1.408381 0.23235454
000260 41 b8 c0 3e a0 c8 d3 be 6c 6c e4 3f 18 aa 8d 3f
       0.37640575 -0.41364002 1.7845588 1.1067533
000270 8a e4 05 3f e1 e7 be 3f b8 e3 eb 3c 5f 90 fc 3f
       0.5230185 1.4914514 0.028795108 1.9731559
000280 80 c1 f4 bc ea b5 96 3f 5e c0 9d bf 2b bf 3e c0
       -0.029877424 1.1774266 -1.2324331 -2.980418
000290 8b 19 81 3e 6b 03 75 3f c0 fd 68 c0 29 be aa bd
       0.252148 0.9570834 -3.6404877 -0.083370514
0002a0 90 23 67 3f d8 a2 5f bf 4f 0a 75 be 26 a8 3a c0
       0.9028864 -0.87357855 -0.23929714 -2.916513
0002b0 96 47 1a 40 2a 58 e3 3f fe 36 bc be 0d 71 dd be
       2.4106193 1.776128 -0.36760706 -0.43250313
0002c0 f7 46 19 bf 4d 65 57 3d 0b f1 d1 3d a6 58 cd bf
       -0.5987391 0.052586842 0.102510534 -1.6042678
0002d0 d4 7b ff 3f 12 12 f9 bd 2f 60 cc bf 16 11 91 bf
       1.9959664 -0.1216165 -1.5966853 -1.1333339
0002e0 be 1d e4 3e 08 07 40 bf 6e f1 a8 be 0f 8c 42 be
       0.4455394 -0.7501073 -0.32996696 -0.1899874
0002f0 3e 36 cf 3e 12 90 19 40 b1 d7 83 bf 1c d7 39 c0
       0.4047107 2.3994184 -1.0300199 -2.9037542
000300 c6 8b 44 3e 10 f3 86 bf cd 0e ca 3f fb 2c 9e 40
       0.19193944 -1.0542927 1.5785767 4.942991
000310 50 9f 94 bf 8c 2f 92 be 9b e9 1d 3f 7e 47 4d be
       -1.1611118 -0.285519 0.6168458 -0.20046803
000320 2b e0 98 3d 18 57 18 c0 9a a0 9e 3e 87 34 2e 40
       0.07464632 -2.3803158 0.30981904 2.721956
000330 e6 34 f7 bf 3b 29 fd bf 36 20 22 be 97 06 9e 3f
       -1.9313018 -1.9778208 -0.158326 1.2345761
000340 a6 72 2c 3f fa 53 27 bf bc b5 20 40 8c 44 98 3f
       0.6736244 -0.65362513 2.5110922 1.1895919
000350 f9 bd ce 3d 07 26 24 bf f6 36 8b 3f 16 b9 00 40
       0.10094828 -0.64120525 1.0876148 2.0112967
000360 96 10 aa be f7 79 1d be da 07 37 40 39 5e a4 40
       -0.3321578 -0.15378557 2.8598542 5.136502
000370 55 d8 91 bf 78 db 9a be a0 6c 90 3d 21 b1 37 40
       -1.1394144 -0.30245566 0.070519686 2.870186
000380 aa 13 eb be 35 27 ff bf 3b 41 1b c0 0e 7e 0a 3f
       -0.4591344 -1.993384 -2.4258564 0.54098594
000390 51 83 9d be 02 54 4d bf 2f 8e 98 c0 52 80 04 c1
       -0.3076425 -0.8020631 -4.7673564 -8.281328
0003a0 b6 92 c3 3e 5c a6 ab bf 76 78 42 bf ff 43 3e 3f
       0.3819787 -1.3410144 -0.7596506 0.74322504
0003b0 c9 1f 74 bf 0b 30 14 c0 aa e0 38 c0 6c 5c fb be
       -0.95361 -2.3154323 -2.8887124 -0.4909395
0003c0 8e bf be bf bd 22 bb be e0 9c 90 bf 8d 41 98 3e
       -1.4902208 -0.3654994 -1.1297874 0.2973751
0003d0 a1 83 7c bf 38 a1 5e c0 f4 9a a6 bf 2b ee c0 bf
       -0.9863835 -3.47859 -1.3016038 -1.5072683
0003e0 86 77 b8 3e 54 3f b2 3e 1b a6 c4 3e 4c 87 99 bf
       0.3602869 0.3481394 0.38407978 -1.1994414
0003f0 af ca 3c bf 5f 23 c8 bf 0e e9 65 c0 1b 0b b5 bd
       -0.7374677 -1.5635794 -3.5923495 -0.08840009

decoder_proj.weight f4 [320, 320]
000000 a6 6f 15 bd 27 08 ee 3c 2d 51 40 3c d2 df 02 bd
       -0.03648343 0.029056622 0.011738104 -0.031951733
000010 d8 21 27 3d 57 40 4b 3d 08 a3 e1 3c 71 87 e7 3e
       0.04080376 0.049621906 0.02754356 0.4522052
000020 23 75 86 3c f5 92 72 bd 75 17 03 3d 3a 36 71 3d
       0.016413277 -0.05922218 0.032004792 0.058889605
000030 2c a1 7b 3d 7d 44 92 bc 20 f6 16 3e 73 99 c9 bc
       0.061433002 -0.017854923 0.14742327 -0.024609303
000040 64 40 33 3d ef 61 77 3c 5b 22 60 bc d4 dd 68 bd
       0.04376258 0.015099033 -0.013680066 -0.056852177
000050 0d d3 c1 3b 6a 8b 6c bd 97 66 1c 3b e1 5b 23 3c
       0.005915052 -0.057750143 0.002386486 0.009970636
000060 cb 02 c2 bc 5a f3 40 3d 71 25 21 bd 43 98 8c 3d
       -0.023682972 0.047107078 -0.039342348 0.06864979
000070 1d f1 32 bd 27 49 08 bd a5 e7 5f 3b ba bd 80 3d
       -0.043686975 -0.03327289 0.003416517 0.062861875
000080 a7 23 82 3c 41 dd 99 bc 19 df d9 3d 01 98 9a 3d
       0.015886141 -0.01878226 0.106382556 0.07548524
000090 5f 09 fc 3c 2f 86 03 3d 04 93 c4 3b 94 ff 8b bd
       0.030766187 0.03211039 0.005998971 -0.06835857
0000a0 53 29 a3 bc c9 ae 4e b9 b8 94 60 3f 9c 96 07 3c
       -0.019917166 -0.00019710803 0.87726927 0.008275654
0000b0 b9 04 25 3d 7e 69 41 3d ff 94 55 bd 7e 30 a5 bc
       0.040287707 0.047219746 -0.052144047 -0.020164724
0000c0 78 13 15 3d 7c f9 9e 3c c4 3e 2e bb f4 fd 48 3d
       0.03639552 0.019406073 -0.0026587704 0.049070314
0000d0 9f d6 ca bc 07 73 1b bc ed 17 48 bd df f8 74 3a
       -0.024760542 -0.009487874 -0.048850942 0.0009344946
0000e0 d9 be 94 3a db 8c 0a ba 62 9a 18 bd 7a 42 69 bd
       0.0011348381 -0.00052852713 -0.037256606 -0.056948163
0000f0 48 d2 eb 3c d4 be 87 3c 40 91 cd bc bf ca 82 bb
       0.028786793 0.016570486 -0.025093675 -0.0039914544
000100 7d db 41 3c d2 5b 2f 3a 65 20 42 bc 7d 2f 90 3d
       0.011832115 0.00066894025 -0.011848544 0.07040308
000110 a5 97 a3 bc 09 b2 d0 3b b9 ea 14 3d 54 7e 61 3d
       -0.01996977 0.0063688797 0.03635666 0.055052117
000120 d9 4b a8 3c 1e d5 5a bc 04 82 88 3d d1 53 52 bd
       0.02054398 -0.013356475 0.066654235 -0.051349465
000130 5e bc 07 bd 8e 9c 62 3c 3f c3 77 ba a3 42 61 3c
       -0.033138625 0.013831271 -0.0009451396 0.013748798
000140 6a f2 0e bb a1 de 13 bd 97 1a 13 3d 90 76 52 3c
       -0.002181197 -0.036100987 0.03591403 0.01284565
000150 19 d8 af bd 67 0e 6d bb 3f b1 84 bd 9d 68 05 3d
       -0.08586139 -0.0036171915 -0.064791195 0.03257047
000160 4b b7 c7 bc 30 a4 0d bd 51 9e 7f bc 34 e6 45 3d
       -0.024379393 -0.03458041 -0.01560171 0.048315242
000170 99 75 5f 3c b4 0f b1 3c 5a 0e 60 bd 5c f9 81 3c
       0.013638877 0.021613933 -0.054701187 0.015865974
000180 6b 4b 88 bd d3 b0 8f 3c 41 e3 50 bb 4c 66 25 3d
       -0.0665501 0.017540371 -0.0031873735 0.04038076
000190 18 65 c3 3c 3f a9 97 3d d8 2f 47 bd 75 f1 b1 3c
       0.023851916 0.07405328 -0.04862961 0.021721581
0001a0 c1 75 5c bc 24 98 62 bd 6d fd 03 3d 89 fe 62 3c
       -0.013455809 -0.055320874 0.032224108 0.013854631
0001b0 35 0a 2d bd 4b 21 4a 3b 1f 35 c0 bb 14 eb f2 3c
       -0.042246062 0.0030842598 -0.0058657075 0.02965311
0001c0 f2 98 bd bc 74 26 63 3d 83 cc f5 bc 96 c1 5c bd
       -0.02314422 0.055456594 -0.030004745 -0.053895555
0001d0 98 87 cf bc 54 18 21 3c d5 1a ff bc 40 62 9f bb
       -0.02533321 0.00983246 -0.031140724 -0.0048640072
0001e0 50 b1 62 bc 76 ae dc 3c fa 1e 4b bd 37 f7 51 bc
       -0.01383622 0.026938658 -0.04959009 -0.012815288
0001f0 7a 7a c4 bd c9 c6 a8 bc d2 80 5e bd 23 9c 83 bd
       -0.09593673 -0.0206026 -0.05432207 -0.06426265
000200 66 90 ad 3b 35 9b 83 bd 64 48 17 bd 6d 48 92 3c
       0.0052967547 -0.06426088 -0.03693427 0.0178568
000210 9a 15 9e bb c1 fa 8a 3b fa 27 0a 3d fe 7f b9 b9
       -0.0048243525 0.004241318 0.03372953 -0.0003538131
000220 0f fe cd 3c 31 ce 7e bd 99 8d d3 3c 70 f0 b6 3c
       0.025145559 -0.06220836 0.025824355 0.022331446
000230 d3 41 66 3b e7 20 d9 bc 78 e5 7f 3c 0d 56 1a bd
       0.003513445 -0.026504947 0.015618674 -0.03767972
000240 b2 3d 4f 3d cb 08 67 bd fb 23 a3 3c e8 0b ed 3b
       0.050595947 -0.05640487 0.019914618 0.0072340854
000250 d7 63 59 bc 3c 07 63 bf 14 1e 2a 3d fe f3 1d bb
       -0.013268433 -0.88682914 0.04153259 -0.002410173
000260 0f cd 49 3d 2e af 5c 3c ed c7 fd bc 76 de 62 bc
       0.049267825 0.0134695005 -0.030979121 -0.013846984
000270 87 48 2b 3d 28 2b 7c 3b 2d 0e af bc 81 19 3d bc
       0.041817214 0.0038477872 -0.021369064 -0.011541725
000280 08 d2 c6 ba d5 ef 91 bb 36 98 07 be 49 f1 b7 bc
       -0.0015168795 -0.004453639 -0.13241658 -0.02245392
000290 a8 ee 09 bb e5 76 96 3c ff d5 87 bd 85 85 30 bd
       -0.0021046791 0.01836724 -0.066326134 -0.043096084
0002a0 02 7d 4e 3c 62 53 10 3b 21 5e 1b bc 32 86 cb 3c
       0.012603046 0.0022022356 -0.009482891 0.024844263
0002b0 98 aa ff bc fa 4f d9 3d 80 86 c4 bb ce df 91 bb
       -0.031209275 0.106109574 -0.005997479 -0.0044517284
0002c0 91 7a a5 3c 10 a5 12 3c 22 1c 95 bd b1 01 50 bb
       0.020200046 0.008950487 -0.072807565 -0.003173929
0002d0 cc dc 5c 3d 54 cc f9 3c 8a 44 be 3c 62 71 ac 3d
       0.053921506 0.030492939 0.023226041 0.084200636
0002e0 ea cb 5b 3b 06 09 8a 3c 18 60 d1 bc 39 fb cf bb
       0.003353829 0.016850006 -0.025558516 -0.0063470867
0002f0 0e cb f8 3a c9 9c 80 3c e3 a2 d6 3c 3b 84 c1 bc
       0.0018981413 0.015699761 0.026200717 -0.023622623
000300 7b 96 37 bc f3 49 57 bc c4 d5 89 bc c5 b2 1d 3d
       -0.011205311 -0.013140189 -0.016825564 0.038500566
000310 0c e7 a1 bc b8 45 36 bd 7b d6 68 3c e7 48 b9 bb
       -0.019763492 -0.044500083 0.014211292 -0.0056544426
000320 27 c4 d7 bd 13 31 1b 3d 02 97 13 3d a5 01 88 3c
       -0.1053546 0.037888598 0.036032684 0.016602347
000330 30 52 15 bd f3 7b 3e bc 76 fb b4 3d a9 51 95 3c
       -0.036455333 -0.0116262315 0.08837025 0.018227415
000340 a5 57 4d bd dd da 30 bc 4d bf 15 3c 82 9c 44 3d
       -0.050132412 -0.010794369 0.009139848 0.04800082
000350 b3 69 94 3c f2 b6 e3 3c 17 3e 50 3d 12 4c 78 3d
       0.018116808 0.027797196 0.050840463 0.06061942
000360 9c 55 74 bd 62 b3 80 bc 26 c1 87 bc 37 22 d6 3a
       -0.059651956 -0.015710536 -0.016571593 0.0016337101
000370 1e 28 4b bd 1e 03 5d 3d a1 09 cf 3d 3e 55 5d 3d
       -0.049598806 0.05395805 0.101092584 0.05403637
000380 11 0a b2 3b 4d 2d a9 3c 3f 88 a3 3c ba dc f1 3c
       0.005433329 0.020651484 0.019962428 0.029524196
000390 a2 a0 17 3c e3 94 40 3d 95 95 0b bd 53 8b 8c 3d
       0.009254606 0.04701699 -0.0340782 0.068625115
0003a0 63 a7 a7 3c 4e 9c 7e 3d d6 8d 28 bd c1 c2 81 3d
       0.020465558 0.062160783 -0.04115089 0.063359745
0003b0 86 62 89 bd 8e c4 ca bd 14 77 ac 3c d8 3a 68 3c
       -0.06708245 -0.09900771 0.021052875 0.014174186
0003c0 a0 3c c2 3d 90 a6 86 bc 86 98 89 3c 83 87 d5 3c
       0.094842196 -0.016436845 0.016796362 0.026065594
0003d0 41 8a bb bc e4 2f c1 bc 6b d0 34 3d f9 27 c0 bc
       -0.022893073 -0.023582406 0.044144075 -0.02345656
0003e0 61 8d 6f 3c c7 d7 3e 3d ab a9 55 bd 57 39 0c 3c
       0.01462111 0.0465925 -0.05216376 0.008558593
0003f0 63 b7 32 bd 9c 22 1a 3d 39 e1 2d bd 19 7d 51 3c
       -0.043631922 0.037630662 -0.042451117 0.012786173

decoder_proj.bias f4 [320]
000000 73 89 39 3d 85 40 c6 bd 7a 6a 1f bf ba 06 ad be
       0.045297097 -0.09680275 -0.62271845 -0.33794194
000010 ad c8 d0 3c 61 34 3f 3e c4 cb 21 3d 27 1c c9 be
       0.025486315 0.18672325 0.039500967 -0.3927929
000020 fa 24 af bb ac 8a fb bd 34 de 5f 3d 70 5d 7d 3e
       -0.005344984 -0.12282309 0.05465527 0.24742675
000030 7c b0 c5 3d 04 b5 96 3e e9 59 04 bd ae a4 9d 3e
       0.09652802 0.2943498 -0.032312308 0.30789703
000040 d6 1f ec 3e e9 96 c3 3e d6 53 72 be be fd 78 bc
       0.4611804 0.38201073 -0.23664793 -0.015197216
000050 6b 35 61 3e a3 63 17 be 99 61 8f 3e 63 4d ac 3e
       0.21993034 -0.14784102 0.2800415 0.3365279
000060 2c 72 33 be 9f 29 6e 3e a3 b9 ae bd a2 8b 15 be
       -0.17524022 0.23258065 -0.08531501 -0.14604047
000070 eb 52 7c be 8a b6 90 3d 89 f1 93 3c e3 e8 32 be
       -0.24641006 0.070660666 0.018059509 -0.17471652
000080 fd 2b 10 3e 5b ee 54 3e 62 34 ab be d3 6c a3 3e
       0.1407928 0.2079405 -0.33438402 0.31918964
000090 25 2c 24 3e 30 cd 1a 3e d8 38 8e be 51 19 d0 3c
       0.16032465 0.15117335 -0.27777743 0.025402697
0000a0 c5 a3 a8 3d 09 2a 9a be 5f fa 80 bc 3e 7c 91 3c
       0.082343616 -0.30110195 -0.015744386 0.017759439
0000b0 30 3a 46 bd a0 ae 17 be 8c 39 54 3d 1b 88 8c 3e
       -0.048395336 -0.14812708 0.051812693 0.2744759
0000c0 58 bc b7 bc 72 41 0f 3d c7 06 49 be 7c 97 d4 bc
       -0.022428676 0.034974523 -0.19631492 -0.02595114
0000d0 ad 05 84 3b 96 38 14 be 74 cf 35 be 2d 3f ab 3d
       0.004028997 -0.14474711 -0.17754918 0.08361659
0000e0 13 1a 1a 3d 63 3f c5 3e 02 77 05 3e 05 49 11 be
       0.037622523 0.38524923 0.13033679 -0.14188011
0000f0 a5 f4 14 3d 53 b1 01 be 06 47 fa bd f5 33 3f bc
       0.036366124 -0.126653 -0.12220578 -0.011670102
000100 42 97 89 bd db 5b 2a be c7 e7 3f be 02 06 9b 3d
       -0.06718303 -0.16636603 -0.1874076 0.07569505
000110 95 e4 6e 3c bb e7 19 3c 39 a9 f6 3d c7 c6 b2 bd
       0.014580865 0.009393628 0.120439954 -0.0872932
000120 a6 c9 3f be 34 d5 91 bd 66 da a7 bc d5 cf 24 be
       -0.18729267 -0.071207434 -0.020489883 -0.16094907
000130 ed d2 ce bd 89 2c ce bd f4 03 23 3d a3 32 ad 3e
       -0.10098825 -0.10067088 0.039798692 0.33827695
000140 80 6e 65 be 50 e0 38 be 57 9c e4 3d f1 31 94 be
       -0.22405434 -0.18054318 0.11162632 -0.28944352
000150 d6 43 14 be e0 87 b5 be 7c 7f db 3d 51 46 d5 bd
       -0.14479002 -0.35455227 0.10717675 -0.104138024
000160 36 6b ae bd 1c c5 f2 3d 77 00 88 bd c0 c3 26 3e
       -0.085165426 0.11854002 -0.06640714 0.1628561
000170 74 73 5a be 45 84 8e 3d e5 4d 80 be d5 91 b6 bd
       -0.21333104 0.06958822 -0.2505943 -0.08914534
000180 a2 38 ba be ba 33 66 3e f1 4d 7e 3c 34 6d 15 3e
       -0.36371332 0.2248067 0.015521512 0.14592439
000190 89 d8 83 bc 32 a8 0d 3e 37 c5 39 bd 0b 09 60 be
       -0.016094463 0.13833693 -0.045354094 -0.2187845
0001a0 24 9a 04 3d 3b 8b 66 bc f7 95 1f be 3e f9 c3 bc
       0.032373562 -0.014071281 -0.15584551 -0.023922559
0001b0 db 3d 23 3e 64 7b 74 3d d3 0f 17 bd 50 1f 80 3d
       0.15941565 0.059687987 -0.036880326 0.062559724
0001c0 06 82 dc 3c 2f 39 d2 3d 36 8a 4c 3e 8c f5 89 3e
       0.026917469 0.10264813 0.19974598 0.2694515
0001d0 1f b7 5e 3e b6 b5 05 3e a1 92 8f bd 03 d7 16 3e
       0.21749543 0.13057598 -0.07010389 0.14730458
0001e0 47 fc 4a be 40 1d 26 3e 55 29 8a 3e 60 b0 9b be
       -0.19822799 0.16222095 0.2698466 -0.30408
0001f0 cd 44 c0 3a 54 25 de 3d 52 72 f8 3c ed 7a 14 bc
       0.0014668942 0.108469635 0.03032795 -0.009062511
000200 67 9c 3f bd 94 4f b6 3d 1d 57 59 be 2b b4 63 be
       -0.046780016 0.08901897 -0.21224637 -0.22236697
000210 1e bd 32 be c0 b1 07 be 36 48 a6 3e 6d 23 a7 bd
       -0.17454955 -0.132514 0.32476968 -0.08161054
000220 84 ff 5a 3e e1 cf 40 bd e7 4d 06 be 13 a2 82 be
       0.21386534 -0.04707325 -0.13115655 -0.25514278
000230 47 2d d9 bd 01 e2 0a 3e 45 83 b5 be 16 2e 9b bd
       -0.10604339 0.13562776 -0.35451713 -0.075771496
000240 5f 45 a2 3d 17 83 95 bc fa bd 1c bd b6 b6 92 3e
       0.07923388 -0.018250985 -0.038267113 0.28655022
000250 f9 da 21 bd 8a 0a 25 be 65 71 d7 bc c6 41 81 3d
       -0.03951547 -0.16117302 -0.026299188 0.063113734
000260 b8 e8 62 be 27 bf d6 bd b1 90 1a 3e f6 c6 b2 3d
       -0.22159088 -0.10485678 0.15094258 0.08729355
000270 4b ef 94 3e 8c 36 e2 bc e8 0c b6 bd 72 7a 81 be
       0.29088816 -0.0276139 -0.088891804 -0.2528873
000280 ef b2 4e 3e 57 31 e1 3c 0e dd 63 3e 65 2c 49 3d
       0.20185445 0.027489347 0.22252294 0.049114604
000290 30 22 a8 be 96 11 08 bf 70 e8 ae be 45 11 1a bd
       -0.32838583 -0.53151834 -0.3416171 -0.037614126
0002a0 80 4d bd 3d f0 d0 6f be c8 cc 54 bc 93 38 60 3e
       0.092432976 -0.23419547 -0.012988277 0.21896581
0002b0 79 c5 5a be 3d 92 9a be 1a cc 67 3e 3c 40 b6 3c
       -0.21364392 -0.30189696 0.22636452 0.022247426
0002c0 15 03 a4 be eb cd 60 3d f8 fc 2e be f2 9b c4 3d
       -0.320336 0.05488388 -0.17088687 0.09600057
0002d0 c9 19 a3 be 95 da 99 bd 03 7f 95 be fb fe 2a 3e
       -0.3185561 -0.07512394 -0.29198465 0.1669883
0002e0 98 12 ba 3d 04 c1 9d 3e 10 cc a3 be 84 cd 2a be
       0.09085578 0.30811322 -0.31991625 -0.1667996
0002f0 aa e4 c6 3e 64 09 b6 bd 53 f2 2a be c0 ab 8b 3e
       0.38846332 -0.0888851 -0.16694002 0.27279472
000300 68 61 85 3e 0d cf 71 be 89 88 6d bc 91 2b 2c 3e
       0.26050878 -0.2361414 -0.014497885 0.16813494
000310 96 f3 9a 3e a7 1e 16 be 18 6b 60 bd 73 37 d9 bc
       0.30263966 -0.1466013 -0.054789633 -0.026515698
000320 8a 33 64 3e 89 d2 b3 be 30 3f 35 bd d3 9a 01 bd
       0.22285286 -0.35121563 -0.044249713 -0.031641793
000330 f3 98 67 3b 47 02 5e be 1c 0e 37 bd d1 39 8f be
       0.0035338968 -0.21680556 -0.04469119 -0.27973798
000340 da 88 08 3e ad 88 85 3b 8e 1b aa 3e fc 5c e9 3d
       0.13333455 0.004075131 0.33224148 0.113946885
000350 08 f5 de 3d 96 64 b6 bd 99 e0 a4 bd 76 89 f9 bc
       0.1088658 -0.08905904 -0.08050651 -0.030461054
000360 fd b7 84 ba 5f fe 09 bd ba 42 9e bd ed c5 b0 bd
       -0.0010125634 -0.033689853 -0.07727571 -0.08631501
000370 2b 25 03 be ce 5c 2f 3d ad 2f 17 3e 9b 95 6e bd
       -0.12807147 0.042813115 0.1476428 -0.058248144
000380 d3 92 9b bc 15 5e 1c bd 74 10 da 3d dc 27 1d bd
       -0.01899091 -0.03817566 0.106476694 -0.03836809
000390 31 05 53 be 7b 4f 2a 3e fb b9 1c 3e a9 08 eb 3d
       -0.20607449 0.16631882 0.15305321 0.11476261
0003a0 a5 a1 f3 bd eb e9 15 be 30 f5 c1 be 6e e0 c9 bd
       -0.118960656 -0.14640014 -0.37882376 -0.0985726
0003b0 9a 93 fb bd a0 3d a0 be 45 6e ae bd a7 83 0b 3e
       -0.12284012 -0.31297016 -0.08517126 0.1362444
0003c0 6d 9d b5 bd 37 45 49 bd 86 35 9e 3e 56 6e 5c 3c
       -0.08867917 -0.049138274 0.3090021 0.0134540405
0003d0 cd e3 85 3e 23 51 b0 3e b6 d3 0c 3d aa 7d 9e be
       0.2615036 0.34436902 0.03438159 -0.3095525
0003e0 69 98 63 bd 70 98 07 be ba 43 1e 3c a1 06 7c 3d
       -0.05556527 -0.13241744 0.009659702 0.06152976
0003f0 76 4f c1 3d 94 42 f8 bd 41 ae e7 bd ab 1e d1 3c
       0.09438984 -0.12122074 -0.11312533 0.025527319
