apps/sherpa-onnx-demo/public/wasm/kws/joiner.onnx (onnx, 253410 bytes, 2 tensors)

output_linear.weight f4 [197, 320]
00000000: 6453 64bd 585d 823c 1ed9 a5bf c894 ae3f
00000010: 6334 3b3b 3ec2 85bf 14e2 08bd a2f3 87bf
00000020: 248b e8bf 8a48 183d f184 57bf 583c 04bf
00000030: be0e b23d 8dd5 9b3f 350c 22bb 2133 663f
00000040: 6a14 b4bd d768 193d 90ef d63d d4d4 c93d
00000050: 2851 bdbc 32e7 8d3a 8802 88bc 071b 0e3d
00000060: b6c9 ae3c 8ec3 843e c2c6 823e 3a95 003f
00000070: 203e cb3e c801 53be c3e6 4fbd 2fa0 6bbf
00000080: 9de9 87be 6148 c63c fb5b 813e 4549 9c3c
00000090: c019 11bd 8fa5 f0bd 1bc4 503f 9129 593d
000000a0: faf7 07bd 155e cbbd 95de 56be 8732 10bd
000000b0: 6198 863d 0249 b93d 2626 cb3c 16ce febf
000000c0: f4dc 013e 4436 2e3e 639f 6d3e 6894 063f
000000d0: 6582 c0bc 299a e4be ae23 963e b99d 3fbe
000000e0: b701 a23e 505d 753f 4d0f 10be 2842 103e
000000f0: a402 eabe bb2c 86bc b3a4 7d3e 7e5e 443d
00000100: a0ac 41bd 27e6 973e 8bd8 42bf d90a cd3c
00000110: 9e6d 91be f158 733d fc7e c0bf 7ac3 db3d
00000120: c6fa 653d fd95 663d 594f 7ebc dd13 c0be
00000130: 89ca 943e bd0a 763f de5a 58be aab0 12be
00000140: 7fe2 29bd 68ba 953e e641 42bd f508 7dbd
00000150: 917d 123e 8771 d33e f4b9 b2bd 14ac 533e
00000160: 9fbc c1bd 09af 0b3d 15b9 62be a634 293e
00000170: cca1 413f 8644 2e3e aa6d a53d c0e6 cd3c
00000180: 4f7e 7dbe 7407 2639 732e c13c 9967 e8be
00000190: 3206 2c3c 4a84 babd 6b6e 90be 975b bc3d
000001a0: 73b1 3d3f 9b51 d63e aade 8fbe 7148 ecbd
000001b0: 57bb 3c3f de9f babe 6a3d b5bd 5c09 603d
000001c0: 14de 4f3d 3c50 3c3f 7d31 8d3f 4995 94bd
000001d0: d022 80bc e80f b83c c82b 2d3d 8aeb 90be
000001e0: 7e62 2e3e 90cf febd 01e9 f73e 9976 e13c
000001f0: 2aae 7e3f 5e4b 5fbc be00 eabd b438 e2bc
00000200: 7c8b 48bd df67 07be 3a76 ee3e 7b77 8f3e
00000210: a2f3 02be d73e 71bc c6f9 bebb 3c7d a73d
00000220: b950 65bc 615b 90bd 71f2 4b3f 144f 8b3e
00000230: 5472 91bb e495 a93c e632 983f 21f7 38bf
00000240: a6be 733d 2289 b43d e4c0 4ebc cbd2 d43c
00000250: 072f 80bc 95cb 2f3f 9ffc 9abd 0ce8 713c
00000260: 3610 743c 24cd ef3e b33b 15bd db85 11be
00000270: 74ac 513f 6acf 3c3e dcef c23c 509f ae3e
00000280: 0f7c e8bc 97f4 1d3e 3d7a 993f 955c 23ba
00000290: 6772 ac3e 65c8 0ac0 a10c db3d 864b 7f3e
000002a0: 95f4 073d cba7 de3e f984 0bbe 2b09 683f
000002b0: 7d6e 8b3d 9626 193f a2e0 2ebf 4b6d 44bf
000002c0: 2f0f cf3f c10e 803e 8b63 163f 7413 a03d
000002d0: 12c2 5bbf 1d44 7b3e 7790 7abe 1c50 85bd
000002e0: 6783 6dbe 8c9b dc3d ad52 39bc c8ed 623e
000002f0: 0c99 613d 52f9 863e cbaf e13e 496d b6be
00000300: 7bb8 89be 35f0 243f 10d9 8d3c b909 29be
00000310: bd91 bdbc 2867 90be 46a0 babc d739 223f
00000320: 488e 29be e100 993d eae1 073f f437 b33d
00000330: 3004 ea3d cf0e a23e 815f 48be 9dc7 96bf
00000340: 2755 e5bc e170 c9bd 8b26 703d f97f a93d
00000350: f564 05be f373 bb3c 1693 5ebd fa70 94be
00000360: 927e 0d3f e33b 76bc 04eb 85bd 6e94 2cbd
00000370: 8dfe 7c3e be0c 9e3e 3918 8cbd 8bdc f03d
00000380: a61b 38bd 4057 fdbf 6846 0d3e 4f1b 953d
00000390: 0d8e fc3a d531 a338 2d75 7ebd 16d9 01bf
000003a0: e445 643b 57d6 78bd d8e4 6bbe fbec 49be
000003b0: 6f5d 2c3f aadf 483c a79a 8cbb 927b 29bd
000003c0: 16be e93c aa72 4d3e 18cd 103e 7272 17bd
000003d0: f818 803f 978b 9cbe fe40 1fbe 3742 b0bd
000003e0: a1a6 5d3e bfc6 83bd 57c9 64bd 8d1a c13a
000003f0: 2189 07be e6ef 63bf 6f37 37bf 8a6e db3c
-0.05574359 0.01591365 -1.2956884 1.3639154 0.002856516 -1.0449903 -0.03341873 -1.0621226
-1.8167462 0.037178554 -0.8418723 -0.5165458 0.08694218 1.2174546 -0.0024726514 0.89921767
-0.08792956 0.0374535 0.10494912 0.09855047 -0.023109987 0.0010826348 -0.01660277 0.034693744
0.021336418 0.25930446 0.25542265 0.502277 0.39695835 -0.20606148 -0.05075718 -0.92041296
-0.2654542 0.024204435 0.25265488 0.019077906 -0.035424948 -0.11750328 0.81549233 0.053018156
-0.033195473 -0.09930054 -0.20983346 -0.035204437 0.06572033 0.09047128 0.024798464 -1.9906642
0.12681943 0.17012888 0.23205332 0.525702 -0.023499677 -0.44648865 0.29324096 -0.1871251
0.31641933 0.9584551 -0.14068337 0.14087737 -0.4570514 -0.016378751 0.24769859 0.047941677
-0.04728377 0.2966778 -0.7611167 0.025029587 -0.28403944 0.059410993 -1.5038753 0.107306436
0.05614736 0.056295384 -0.015521848 -0.37515154 0.29060772 0.96110135 -0.21128413 -0.14325204
-0.04147577 0.2924378 -0.047426127 -0.06177612 0.14305712 0.41297552 -0.08726874 0.20671111
-0.09459805 0.034102473 -0.22140916 0.1652399 0.7563751 0.17018327 0.080775574 0.025134444
-0.24755214 0.0001583377 0.023581719 -0.4539154 0.010499524 -0.091072634 -0.28209242 0.09197157
0.7409889 0.41859135 -0.28099567 -0.115372546 0.7372336 -0.36450094 -0.088496044 0.054696426
0.0507489 0.7355993 1.1030728 -0.072550364 -0.0156416 0.022468522 0.04227808 -0.28304702
0.1702976 -0.12441933 0.48419955 0.027522372 0.99484503 -0.013628809 -0.11425923 -0.027614929
-0.048961148 -0.13223217 0.46574575 0.28020844 -0.12788251 -0.014724455 -0.005828115 0.081781834
-0.013996297 -0.07048679 0.7966681 0.2720877 -0.004438678 0.020701356 1.1890533 -0.7225209
0.05950799 0.088152185 -0.012619231 0.02597942 -0.015647424 0.68670017 -0.07567715 0.014764797
0.014896443 0.46836197 -0.036433887 -0.14211218 0.8190377 0.18438497 0.023796014 0.3410592
-0.028379468 0.15425335 1.1990429 -0.00062317523 0.33681032 -2.168481 0.10695768 0.24931154
0.033192236 0.4348739 -0.13624944 0.9063899 0.06808183 0.598245 -0.6831151 -0.7672927
1.6176509 0.25011256 0.5874564 0.078162104 -0.85843 0.24537702 -0.24469171 -0.0650942
-0.23194657 0.10771856 -0.011311215 0.22161019 0.055077597 0.2636209 0.44079432 -0.35630253
-0.2689856 0.64429027 0.017315418 -0.16507615 -0.023140782 -0.28203702 -0.022781502 0.63369507
-0.16558182 0.07470871 0.5307909 0.087509066 0.1142658 0.31651923 -0.19567682 -1.1779667
-0.027994705 -0.09835983 0.058630507 0.08276362 -0.13026793 0.022882437 -0.05433949 -0.28992444
0.55271256 -0.015028927 -0.06538966 -0.04213374 0.24706478 0.30869097 -0.068405576 0.11760815
-0.044948243 -1.9792252 0.13796389 0.07280599 0.0019268409 7.7817276e-05 -0.062123466 -0.5072187
0.0034831697 -0.060751285 -0.23036516 -0.19719307 0.6733007 0.012260357 -0.004290897 -0.04137761
0.028533023 0.20063272 0.14140737 -0.036974378 1.000762 -0.3057525 -0.15552136 -0.086063795
0.21645595 -0.06434392 -0.055856075 0.0014732644 -0.13235904 -0.8903793 -0.7156896 0.026786108

output_linear.bias f4 [197]
00000000: 4701 98bd 8148 2dbf 044a 2dbf d597 03bf
00000010: fd48 b1be 778b 2b3f be3e 893f a281 2dbd
00000020: 2236 9d3f 5a97 0140 e389 013f c56d 513f
00000030: e690 a63e cfbe 423d 4545 86be 8d98 7abe
00000040: 6c1b 94be ef77 923d bfaf cabe 5a7e 333f
00000050: 65ed da3e e3c6 883f 33e4 2bbf 73b2 223e
00000060: 9fef 043e fdaf ad3f 32f1 9a3c 6358 92be
00000070: 92b9 523f 535b 343f 4c72 363f da6f 833e
00000080: de2d d03e c094 92be f2d4 39bf 0e48 a13f
00000090: 3a04 1a3f 4504 16c0 7f7b 323f b02f 893b
000000a0: c01c 3cbe 039f e7be b537 873e 0005 653f
000000b0: 34e7 523f 4a18 a93e cdb9 a1be 55b9 a73f
000000c0: db7c 19be afa1 f9bd b642 0f3e 8fa7 043e
000000d0: cf7d b03d 1d7e b43e 960f 443f 9b2a 1c3e
000000e0: 1889 33bf 95a9 393c efcd ea3e 403e 463f
000000f0: c6fe 09bf be8d 2a3f 243c c63c fe7e c9be
00000100: e9bb d23f 3c77 07bf 6040 973d b044 70bf
00000110: a799 26bf 84f8 a83f 2304 2cbe 8a7a 943c
00000120: ece8 8bbe 5b5c cb3e b002 a23e 9b37 273f
00000130: bf5f cabf 0b23 e33e b729 40bf 72c2 ca3f
00000140: bfb5 f23e 9688 05c0 75e5 de3d b05b 9ebe
00000150: b88b 693e 0a26 45bf fc2c 82bf b41b f93e
00000160: 05ee 3abf 2d98 14bf c065 7abd 07c0 92bf
00000170: 2845 023d 63e7 fabe c648 14bf 61a4 4ebe
00000180: d44e 7abe 2b46 4fbf 7a73 05be ed9f 44bd
00000190: 548f 93bf 19a6 a1be ac33 853e 60e2 0f3f
000001a0: edcc a63f 3f16 debe 46b8 253e 574e d43e
000001b0: 090d 5a3e 45d6 a53e 1727 ad3e 8001 a23d
000001c0: 2ee4 84be b44f 86be 1cfd cdbe 4e95 093f
000001d0: 0c84 84bf 754e edbe 19ad e5be facf c9be
000001e0: 7a9b 23be 6373 ac3f 236a 643f f720 d33e
000001f0: 0789 273f 7a69 4e3f effa bebd 60d5 02bf
00000200: 572c 75bf a3a4 2ebf ff07 e1be 2e6f 713d
00000210: 40bd 50be 3e60 673f be90 05bf 16dd b43f
00000220: f395 383f df68 2ebf 389d 91be 0dcc 1c3e
00000230: 1811 60bf cbcd 15c0 6c2b 0f3f 9251 41be
00000240: 778f bfbd aa26 3cbe d635 37bd 674d 413e
00000250: 47cd c0be 771d 4b3f 8067 2bbf 6279 053f
00000260: dc3c 97bf bbb4 d1bd f4ed fbbe d1c9 9cbe
00000270: f5cf 70bf d688 963e e9f2 ecbe 60a8 82bf
00000280: 2da7 46bf 7819 8d3e cc9d ca3f e82c 323e
00000290: 8fa7 72bf 4f4a 8ebf 1f0b bf3f fa3e 37bf
000002a0: 42a4 7abd 118c 3bbf 096d b8be 1df3 75bf
000002b0: 2614 8a3e bf6f 43be 7d57 f4bf 3cc6 a43e
000002c0: d6c1 8abf 3d29 a1bf 0bf3 5bbf 8d39 d2bf
000002d0: 5865 58bf 6c37 76bf 75f8 83bf 4e27 b3bf
000002e0: f4f9 3cbf ae7e 6bbf 1fe0 d7bf 4d81 89bf
000002f0: e6cb a5bf 1095 74bf f3bf 6ebf b059 01c0
00000300: 5da3 32bf 6c6f 54bf ae26 39bf 07b9 083f
00000310: 84fc 1abf
-0.07422119 -0.6768876 -0.67691064 -0.5140355 -0.34625998 0.6700968 1.0722272 -0.042359956
1.2282145 2.0248628 0.50601023 0.8180812 0.32532424 0.04754525 -0.26224723 -0.24472256
-0.2892717 0.07151782 -0.3958721 0.7011467 0.42759243 1.0685695 -0.6714508 0.15888385
0.12982033 1.3569332 0.018913839 -0.2858306 0.8231441 0.7045185 0.71268153 0.25671273
0.40659994 -0.28629112 -0.72590554 1.2600114 0.601627 -2.3440106 0.6971969 0.004186593
-0.18370342 -0.45238504 0.2640969 0.89460754 0.8238404 0.33026344 -0.31587067 1.3103434
-0.14989035 -0.12189042 0.13990292 0.12954544 0.08617746 0.35252467 0.7658628 0.15250628
-0.70131063 0.011331935 0.4586024 0.77438736 -0.5390438 0.6662253 0.0241986 -0.393547
1.6463596 -0.5291631 0.073853254 -0.9385481 -0.65078205 1.3200841 -0.16798453 0.018124837
-0.27326143 0.397189 0.31642675 0.6531922 -1.5810469 0.44362673 -0.7506365 1.584059
0.47404286 -2.0864615 0.10883609 -0.30929327 0.22807205 -0.7701117 -1.0169978 0.48653948
-0.7301944 -0.580447 -0.061132193 -1.1464852 0.031804234 -0.4900466 -0.57923543 -0.20179893
-0.24444133 -0.8096644 -0.13032332 -0.04800408 -1.1528115 -0.31572035 0.26015985 0.56204796
1.3031288 -0.43376347 0.16183576 0.4146602 0.21294035 0.32390037 0.33818886 0.07910442
-0.25955337 -0.26232684 -0.4023217 0.53743446 -1.0352798 -0.4634892 -0.44858626 -0.39416486
-0.15977278 1.3472713 0.8922445 0.41236088 0.6544346 0.80629694 -0.093252055 -0.51106834
-0.9577078 -0.68219966 -0.43951413 0.05894392 -0.20384693 0.9038123 -0.52173984 1.412997
0.72103804 -0.6812877 -0.2844026 0.15312214 -0.87526083 -2.3406856 0.5592563 -0.18878773
-0.093535356 -0.18374124 -0.044729076 0.18877183 -0.37656614 0.79341835 -0.66954803 0.5213834
-1.1815448 -0.1023955 -0.4920498 -0.30622724 -0.9406732 0.29401273 -0.46279076 -1.0207634
-0.7759884 0.27558494 1.5829406 0.17399943 -0.94786924 -1.1116427 1.4925269 -0.7158047
-0.061191805 -0.732606 -0.36020687 -0.96074086 0.26968497 -0.19085597 -1.9089199 0.3218249
-1.0840404 -1.259071 -0.8591773 -1.6423813 -0.8452964 -0.9617832 -1.0310198 -1.399637
-0.738189 -0.9199017 -1.6865271 -1.0742584 -1.295285 -0.9553995 -0.9326164 -2.021099
-0.6978052 -0.82982516 -0.72324646 0.5340733 -0.6054156
